torch_code_ANN/model_pth/tudui_49.pth (torch, 589318 bytes, 10 tensors)

weight f4 [32, 3, 5, 5]
000000 af 36 23 3e 3b a2 4b 3e 27 d2 57 3c 15 76 6f be
       0.15938829 0.19886105 0.013172663 -0.23384888
000010 8a f0 2a be c1 1e d4 bd d9 2d 60 bd 70 b1 29 be
       -0.16693321 -0.10357428 -0.054731224 -0.16571593
000020 97 4e 29 3e 5f d2 e3 bc c8 0d cb bd 72 56 3b be
       0.16533886 -0.027810274 -0.09914738 -0.18294695
000030 eb ec b1 bd 1b f6 3a 3e b9 2d 35 3d 3e 5c 1f bd
       -0.08687767 0.18257944 0.044233058 -0.03890633
000040 0c fd e0 3d f1 6f b7 bc 11 8c 90 bc ea 9b da bc
       0.10985765 -0.022392245 -0.017644914 -0.026685674
000050 37 66 5a 3d 13 6d 3a bd a0 ae 02 be 8a 4e 4a bd
       0.053320136 -0.045514178 -0.12761927 -0.049391307
000060 12 76 c2 3d 69 44 88 3d cb a6 3c 3e 71 1c 67 3d
       0.094951764 0.06653673 0.18423001 0.05642361
000070 0d ae d7 bd 31 4b 0e bc f0 42 2f 3d 86 5b 0d be
       -0.105312444 -0.008684919 0.042788446 -0.13804445
000080 1c 43 1c bd 60 36 62 3e 54 bc 1b 3e 3f 66 54 3d
       -0.038149938 0.22091055 0.1520856 0.051855322
000090 63 91 62 be 75 d3 be 3d 73 ae 83 3e 47 7e 25 3e
       -0.22125773 0.09317676 0.25719032 0.16161452
0000a0 30 55 27 bd 23 b9 9a 3d 66 99 d2 bd 64 b8 bf 3c
       -0.040852726 0.07554843 -0.10283165 0.023403354
0000b0 de e9 a8 3d f6 d7 82 3c e3 55 a9 bb f9 11 99 3d
       0.082477316 0.015972119 -0.005167709 0.07474131
0000c0 5c df 81 3d 1f 40 e3 3c 01 62 50 bd f1 6a 44 3e
       0.063414305 0.027740536 -0.050874714 0.1918142
0000d0 87 9c 8d bd 99 57 c0 3c 80 b0 43 be 46 e7 4d bc
       -0.06914621 0.02347927 -0.19110298 -0.012567347
0000e0 62 a0 7e bd 52 26 9f bc d5 96 58 3e 74 24 88 bc
       -0.06216467 -0.019427452 0.21151288 -0.016618945
0000f0 ba d5 2d be 18 48 41 be e4 12 7d 3d 9f 5b 39 3e
       -0.16976061 -0.18875158 0.061785594 0.18101357
000100 ac 48 a2 3d 0f b7 c1 bc 99 0a a5 3d 59 05 b8 bd
       0.07924017 -0.02364686 0.08058662 -0.08985395
000110 d6 fd 64 3d 8b ce 86 bd 69 20 fc 3b 31 38 ba 3c
       0.05590614 -0.06582364 0.0076942933 0.022731872
000120 63 26 c5 bd f0 3d fa bd c9 0e e7 3d f7 ea 7a bc
       -0.09626462 -0.12218845 0.11282117 -0.015314809
000130 63 65 35 be 4b 96 0a bc fe d9 90 3d 9d a4 f8 bd
       -0.17714457 -0.008458684 0.07072829 -0.121407725
000140 92 89 4e be 95 8a 8d be 41 78 1b be 29 46 3b 3e
       -0.20169666 -0.27644792 -0.15182592 0.18288483
000150 47 b9 89 3e bb 7a 0d be d3 91 4c bd 66 f2 27 be
       0.26899168 -0.13816349 -0.049943756 -0.16401061
000160 0f 52 4d 3e f4 02 9e 3e 39 5a 68 3b b6 26 c1 bc
       0.20050834 0.30861628 0.0035454168 -0.02357803
000170 b4 df 10 3d 28 f8 7c bd 30 29 07 3e a2 e2 db 3d
       0.03536959 -0.061760098 0.13199306 0.10736586
000180 1b a9 8d 3d 02 dd f8 bd 49 52 aa bd f7 9a d2 3d
       0.0691702 -0.12151529 -0.08316476 0.102834634
000190 14 1a fa bd f2 fe 19 be 66 51 82 3d 0b 98 bf bb
       -0.12212005 -0.1503866 0.06363182 -0.0058469824
0001a0 57 ef 12 bd 16 2d 67 be 8b 76 61 be 59 3d db 3b
       -0.035872784 -0.22575793 -0.22017877 0.006690663
0001b0 97 8a 45 3e 4b 21 74 3e 3a ba b5 bd 56 63 3b be
       0.19291149 0.23840825 -0.088734105 -0.18299612
0001c0 b2 17 61 be 91 9d bc 3d 8f 2d 3b 3e 89 6e d2 3d
       -0.21981695 0.09209741 0.18279098 0.10274989
0001d0 f8 bf 21 be 2d d6 f3 bd 4e f7 3f 3c b7 dd d8 3c
       -0.15795887 -0.11906085 0.011716677 0.02647291
0001e0 c4 92 9e 3d 1a a3 e9 bc 4a 55 19 bd 29 a4 c8 3a
       0.07742837 -0.028520156 -0.037434854 0.0015307713
0001f0 9f 6b cf bd cf 78 78 3d 2d ed 75 bd 99 dc 0b 3e
       -0.10127949 0.060662087 -0.06004064 0.1365837
000200 3f 20 9d 3c bd 95 6a 3d 03 eb 49 be 2d 6c cd bc
       0.019180415 0.057271708 -0.19718556 -0.025075996
000210 05 cb 10 bc 18 a6 8f 3e 99 d9 64 3d c3 3b 0f be
       -0.008837466 0.28056407 0.05587158 -0.13987641
000220 1f 85 73 be a6 7d b4 bc 60 5e 8a 3e bd b2 a1 3e
       -0.2378125 -0.02203257 0.27025127 0.3158168
000230 ca 83 82 bd df 23 a1 3c 7e 31 3e 3d 13 33 cf bc
       -0.06372793 0.019670425 0.04643392 -0.025292909
000240 40 7a 03 3d 4d 2a 77 3d e0 b8 36 bd 11 1a a6 bb
       0.03209901 0.060343076 -0.044609904 -0.0050690253
000250 7c 02 1a 3b dd af 28 3d 07 86 0b 3d b4 f2 2d bc
       0.0023500016 0.04118334 0.034063365 -0.010616947
000260 46 72 02 3e ce 1b 01 3e 7b 2c 5f 3d 27 c5 e4 3c
       0.12738904 0.12608263 0.05448578 0.02792604
000270 e4 c5 11 bd a5 b9 24 bd 64 5f 26 3e 76 20 77 3e
       -0.035589114 -0.040216107 0.16247326 0.24133477
000280 32 10 4d bd dc b1 49 be 4d 6b 86 be 22 99 d2 bd
       -0.050064273 -0.19696754 -0.2625374 -0.10283114
000290 6e 04 54 be 56 f4 3f bc 7b 19 26 3c 2e 22 1f 3d
       -0.20704815 -0.011715969 0.010137911 0.038850956
0002a0 62 cf a1 bd 99 4b 81 bd 41 03 2f bd 69 61 4b 3e
       -0.07900883 -0.06313247 -0.042727713 0.19861378
0002b0 49 6c 9e 3c 71 4a 0d 3e 6d 43 09 3e 68 5b 30 bd
       0.019338744 0.13797928 0.13404627 -0.04305592
0002c0 a2 35 c5 bd a2 13 8c bd e2 48 a9 3d 72 2d 54 3d
       -0.0962937 -0.06839682 0.082658544 0.051801153
0002d0 5e b5 03 be 69 90 d9 bd cf ab 29 be b4 f8 d3 bd
       -0.12862155 -0.10623247 -0.16569446 -0.10350171
0002e0 ca 33 6e 3d 46 02 eb 3d 24 37 39 be 69 d1 a9 be
       0.05815486 0.11475043 -0.1808744 -0.3316758
0002f0 e9 6f aa be 7f fe 21 be ac 80 e3 3d 45 fc 01 3e
       -0.33288506 -0.15819739 0.111085266 0.1269389
000300 a6 52 c0 3c d1 8a 8b bd d1 48 ec bd 7f c6 cd bd
       0.02347691 -0.068135865 -0.11537326 -0.10047626
000310 58 a1 4f 3e 78 10 35 3e be 06 84 3e 84 d6 17 3d
       0.20276392 0.17682064 0.25786394 0.037069812
000320 be 8d af bd de 8b 6c 3c 3c ba fa 3d 30 a3 9e 3d
       -0.08571957 0.014437644 0.12242553 0.07745969
000330 95 05 7b 3d 88 67 03 3d 24 90 c9 bd f0 2c 65 3d
       0.06128462 0.032081157 -0.09841946 0.05595106
000340 5a d2 81 3d 54 95 52 3e 27 ea ff 3c f5 ec 2b be
       0.063389495 0.20564777 0.031239582 -0.1678961
000350 b1 61 8d bd f9 9b 8e be 0e be 30 be 5f f1 08 3e
       -0.06903399 -0.27853373 -0.1726 0.13373326
000360 16 15 4a 3e de 2b 8f 3d eb 0a 57 bc 0b b7 cb 3c
       0.19734606 0.06990789 -0.013125162 0.024867555
000370 35 fe bd bd 68 db 25 bb a9 58 06 3e 53 8f 2c 3e
       -0.09277002 -0.0025307778 0.13119759 0.16851549
000380 b2 05 43 3d 12 cd 31 be 37 b3 33 3c 7d 0e 89 3d
       0.047612853 -0.17363384 0.010968021 0.066922165
000390 6a bf 8b 3d c9 6f db bd a0 31 fb bd 9e 70 26 bd
       0.06823619 -0.10714681 -0.122653246 -0.040634744
0003a0 84 de 14 3e b5 fe 21 3e 84 32 5f be 86 5d b5 bd
       0.14538008 0.1581982 -0.21796614 -0.08855729
0003b0 36 00 54 be 3d 61 4c be 12 8b 36 3e 9b 8a f7 3d
       -0.20703205 -0.19958968 0.17826489 0.12086984
0003c0 e4 84 8b bc ad f0 1e bd 93 18 4e be 08 e4 6f bd
       -0.01703114 -0.038803745 -0.20126562 -0.058567077
0003d0 25 74 f1 bc 80 08 d7 3d 8b a9 8b bd 5b 92 8b be
       -0.029474327 0.10499668 -0.06819447 -0.27260098
0003e0 3e 06 78 bd 85 4f 2e 3e 79 57 2b be 7e c2 12 3d
       -0.060552828 0.17022522 -0.16732587 0.035830013
0003f0 85 d7 74 3e db 0a 5a 3d f9 aa 81 be 9d 9d d9 bd
       0.23910339 0.05323301 -0.25325754 -0.106257655

bias f4 [32]
000000 c4 ce ab be a2 b3 01 bd 61 0c 4b be bd 36 7d 3d
       -0.33556187 -0.03166545 -0.19828941 0.06181978
000010 31 8e 73 3d 59 f6 f7 3d e8 76 54 3b 39 ba 32 bc
       0.059461776 0.12107534 0.0032419506 -0.010908657
000020 ab e4 e3 bd f1 ff d7 be 3f 4f b5 be 75 af b8 ba
       -0.11127599 -0.42187455 -0.35412022 -0.0014090376
000030 e0 70 9b be 7b 43 4a 3e 20 3a 9a bd b1 76 7f be
       -0.30359554 0.19752304 -0.07530618 -0.24947621
000040 ce 7d f2 3d c1 57 85 3e 10 36 83 be d5 d4 16 be
       0.118404016 0.26043513 -0.25627184 -0.14729626
000050 77 12 6f 3d 8d 32 0e be dd c8 02 3e bc a4 e6 bd
       0.05836722 -0.13886471 0.12771936 -0.11261889
000060 d4 aa 14 be c7 ad 93 3d 3a 8e a1 be 4d 19 1e be
       -0.14518291 0.0721088 -0.31553823 -0.15439339
000070 2c b4 8e be 76 1d 65 3e 90 00 ac 3e 11 bb 3e bc
       -0.27871835 0.2237452 0.3359418 -0.01164128

weight f4 [32, 32, 5, 5]
000000 60 c2 ec 3c f9 ca 58 bc 81 90 49 bd af 10 53 bc
       0.028901279 -0.013231986 -0.049210075 -0.012882396
000010 da 7b 82 bc 73 ac 56 3b 11 b2 96 3d 1f 75 98 bd
       -0.015928198 0.0032756596 0.07358182 -0.07444214
000020 9e be e3 bc af 0a fd 3c 89 2b 1d bc ac 55 3a 3c
       -0.027800854 0.030888883 -0.009592899 0.011372965
000030 d8 8d ae 3c 38 a0 44 bd b8 36 57 bd 56 8e c9 bc
       0.02130787 -0.04800436 -0.05254242 -0.024604004
000040 2f 41 84 bc 6c 4f c2 bc 29 1a 02 bd 81 7d 09 3c
       -0.016144363 -0.023719512 -0.03176323 0.008391739
000050 75 68 36 3d 98 5a 63 3c 55 be 7d bd 93 a1 ea bc
       0.04453321 0.01387658 -0.061949093 -0.028641498
000060 03 b9 2d bd af 37 95 bc d3 f5 a2 bd d6 30 57 bd
       -0.04241277 -0.018215029 -0.079570435 -0.052536808
000070 59 66 1e bb 40 d6 bf 3c 9b 59 eb 3d cf c7 08 3d
       -0.002416989 0.023417592 0.114917 0.033393677
000080 4d fd 8e bd 0f 71 90 bd 37 00 81 3c 45 f9 cf 3d
       -0.06981907 -0.07052814 0.015747173 0.10154966
000090 85 3f 95 3c f5 09 fd bc 79 2b 73 bd 4b 58 34 bd
       0.018218765 -0.030888537 -0.05936763 -0.044029515
0000a0 ac ad 3e 3d 47 18 05 bc a1 cd 7e 3d 3e 50 04 bb
       0.046552345 -0.008123464 0.06220782 -0.002018943
0000b0 35 49 08 bd 18 2f 68 3d 49 86 dd bb db 47 f1 bc
       -0.03327294 0.056685537 -0.006760393 -0.029453209
0000c0 ec 89 89 bd ff a7 4c bc af ec 8e 3c 94 c3 98 3c
       -0.0671576 -0.012491225 0.017446844 0.018647946
0000d0 68 f2 3e 3d 83 33 8c bd 5b 8f f2 bc ca 4d 83 3c
       0.046617895 -0.068457626 -0.029609373 0.016028304
0000e0 b3 c9 38 bc fd 79 eb bc 14 49 d7 bc b4 49 96 bc
       -0.011278558 -0.028744692 -0.026279964 -0.018345691
0000f0 36 89 3f 3d 49 3e 84 3d 9e e2 5d bd 07 48 25 bc
       0.046761714 0.064571925 -0.054171197 -0.010087973
000100 25 80 14 3d 2c 2f 03 3c a8 11 c7 3d 5b ea 15 bc
       0.03625502 0.008006852 0.097201645 -0.009150113
000110 a9 43 d9 bc 91 f8 24 bc a0 42 0d 3d 2a b4 58 bc
       -0.02652152 -0.0100690285 0.034487367 -0.013226548
000120 77 4d 6a 3d ce 25 69 3d c5 d8 33 3d 0d 86 43 bb
       0.057202782 0.05692082 0.0439079 -0.002983454
000130 cc 2d 7c bd 19 e7 77 3b 1b c2 a2 bb 79 de 47 bd
       -0.061567113 0.0037826954 -0.004966987 -0.04879615
000140 03 d5 9b bc 62 19 32 3d a5 f9 51 bd a1 71 dc 3b
       -0.01902247 0.04348124 -0.05126347 0.006727413
000150 70 14 00 bc 6b 6f a5 bc 60 a2 3d bc 56 3f f6 3c
       -0.007817373 -0.02019473 -0.011574358 0.030059498
000160 84 3c 0d bd ba 7e 04 bd 88 2b 8e bd dc f4 f7 bc
       -0.03448154 -0.03234742 -0.06941897 -0.030268125
000170 ac 84 01 bc 26 a9 f2 bc f3 a2 fa bc de bb f4 bc
       -0.007905167 -0.029621672 -0.030595278 -0.029874738
000180 1f 71 4f 3c 13 03 67 bc 01 26 a0 bc 00 88 22 3d
       0.0126612475 -0.014099854 -0.019549372 0.03968048
000190 0e c9 9a 3c 97 c1 00 bd a3 8f d1 bc 67 0d 4a bd
       0.018894698 -0.03143462 -0.025581187 -0.049329188
0001a0 ed ef 70 3d 6c af 8f 3c 41 fa aa 3c ac a4 8b bd
       0.05882256 0.017539702 0.020871283 -0.06818518
0001b0 85 d6 b0 bd 4a d4 f4 3a 94 2f 84 3d 3f dc 8b bc
       -0.08634666 0.001867899 0.06454387 -0.017072795
0001c0 14 5d 91 bd 0e 09 17 bd 2f ac 44 bd 7f e5 9a 3c
       -0.07097831 -0.03687387 -0.04801577 0.01890826
0001d0 f3 d6 67 bd e7 a1 f3 bc 06 52 1e b6 9e 06 61 bd
       -0.056601476 -0.029740287 -2.3591579e-06 -0.05493795
0001e0 9e 53 fc bb 93 30 f0 3c 61 cf 1e 3d 67 ea 09 bd
       -0.0077003976 0.029320037 0.03877199 -0.03367081
0001f0 31 64 10 bd c3 0c 89 3a 1b 18 20 be 5f 5e ba bd
       -0.0352518 0.0010456074 -0.15634196 -0.09100031
000200 ad 3c 60 bd 39 62 9f 3c 3a 2c 0d 3d f9 e9 28 bd
       -0.054745365 0.019456016 0.034466006 -0.04123876
000210 03 be 8c bd 3c df e6 bd 43 fc ec 3c 7d e3 46 3d
       -0.06872179 -0.11273047 0.028928882 0.048556793
000220 3a 00 38 3d 88 be d1 bc fb a3 13 be 74 e3 97 3c
       0.04492209 -0.025603548 -0.14418022 0.018541075
000230 e9 89 aa 3d 8f 76 01 3d 92 09 85 bc 1b 7f 71 bd
       0.083270855 0.031607207 -0.016239915 -0.058959108
000240 27 a5 4c bd ff 76 93 3d 31 23 c0 bb 33 fd b5 3d
       -0.04996219 0.07200431 -0.00586357 0.088861845
000250 83 b0 95 3c 28 a5 0a bd 84 e4 34 bc 53 45 4f bd
       0.018272644 -0.03384891 -0.0110408105 -0.050603222
000260 62 fd 2a bd 41 d5 75 bd 06 46 48 bd 36 86 00 bd
       -0.04174555 -0.060017828 -0.048894905 -0.031377994
000270 12 ca 9f bc c0 e4 ee bc 64 41 9c bc ce 41 49 bd
       -0.019505534 -0.02916181 -0.01907415 -0.049135022
000280 66 5e c4 bd 9b 41 81 bd 94 29 f0 bc a7 ec 9a bd
       -0.095883176 -0.063113414 -0.029316701 -0.07564669
000290 54 3b 7d bd b0 cf c7 bd de 71 cd bc 0c e3 88 bd
       -0.061824158 -0.0975641 -0.02507871 -0.06683931
0002a0 6f bc 01 bd 92 1a 66 bd 25 3d 07 bd 1b 08 b1 bc
       -0.031673845 -0.056177683 -0.033017296 -0.02161031
0002b0 3b 38 fe bc fa ac 06 bd 3f 7c b4 bd c1 59 9a bd
       -0.031032672 -0.032879807 -0.088127606 -0.075366504
0002c0 31 80 06 be 0c 5b ca bd 71 6c 10 bc 48 01 6a bc
       -0.13134839 -0.09880647 -0.008814917 -0.014282532
0002d0 cf 04 e0 bd a7 76 44 be 5c 9d 00 be 61 8c dc bd
       -0.10938417 -0.19185887 -0.12560028 -0.10768963
0002e0 3b 97 27 3d bc 4e b6 bd 60 2a dc bd e4 c7 18 be
       0.04091571 -0.08901736 -0.1075027 -0.14920002
0002f0 8e 45 af bd 52 0c 74 bc c0 65 f2 bc 28 e9 93 bd
       -0.085581884 -0.0148955155 -0.029589534 -0.072222054
000300 0c 18 2b bd 5a 69 33 bd 26 7b b0 bd 5b dd d7 bb
       -0.04177098 -0.043801643 -0.08617239 -0.006587667
000310 99 8d fb ba f3 7c 66 3d 05 cb 6f bb 9e 59 0c bc
       -0.001919198 0.056271505 -0.0036589515 -0.008566288
000320 e1 ff cf 3c 31 12 97 bb 74 04 57 3d 56 94 b3 bd
       0.025390567 -0.004610323 0.05249448 -0.08768527
000330 d9 3a 76 bd fb 69 39 bd d7 cd 97 bc 89 13 0c bd
       -0.060114715 -0.045267086 -0.01853077 -0.034198318
000340 77 b9 11 bd 6d 5e 73 3c 00 a4 cf bd d9 6a bb bd
       -0.035577264 0.014854056 -0.101387024 -0.09151239
000350 14 7f 83 bd 18 fb 87 bc 40 f9 36 3d cd 1a d9 bc
       -0.064207226 -0.016599223 0.044671297 -0.026502037
000360 c2 1b 4f 3a 98 50 7d bd dc 36 9d bd cb 07 9f 3b
       0.00079005596 -0.06184444 -0.07676479 0.004853224
000370 42 50 8e 3c e6 2a 49 3d 6e 1e bc 3b e7 22 31 3d
       0.017372254 0.049113177 0.005740932 0.043246176
000380 ea e4 5d 3d 15 ff 23 3c f5 8a 8d 3d d1 1c 2b bd
       0.054173388 0.010009547 0.069112696 -0.04177553
000390 3f 1f 82 bd 48 a3 4f bc 15 36 5f 3d 88 96 f5 3d
       -0.06353616 -0.012673207 0.054494936 0.11991602
0003a0 c8 74 97 3d 78 35 f7 bc 40 2a a3 bd 7a 4d 17 bd
       0.07395321 -0.030176863 -0.07967043 -0.03693912
0003b0 72 94 5e 3d 9d e9 a4 3d 58 27 8d bb 71 97 45 bd
       0.054340787 0.08052371 -0.0043076687 -0.04824013
0003c0 11 cb 20 bc 02 d5 4e bb 26 19 67 3b 29 71 80 bc
       -0.00981404 -0.0031560068 0.0035262792 -0.015678959
0003d0 d5 7b 92 bc 8f 1c 26 bc 42 de 5a bc d4 5b de 3c
       -0.017881313 -0.010138645 -0.013358654 0.027143396
0003e0 62 1b 18 bd 49 cf a4 bc c1 c9 77 3d 7f 45 39 bc
       -0.03713549 -0.020118373 0.060495142 -0.011308073
0003f0 fe e8 72 bb bd 47 75 bd 3e 26 2f bd 1b c0 03 3d
       -0.0037065144 -0.059882868 -0.04276108 0.032165628

bias f4 [32]
000000 1b 05 b2 be 79 ab cb bd 3a 7e 80 be 71 06 c2 3d
       -0.3476952 -0.09944815 -0.25096303 0.09473885
000010 14 af 19 bd ce bd 54 be e3 10 c0 bd 3e 82 d7 bd
       -0.037520483 -0.2077553 -0.09378221 -0.105228886
000020 b5 23 41 be d1 67 8e be 96 32 2f be e1 98 3e be
       -0.18861277 -0.2781358 -0.17109141 -0.18613006
000030 18 9f 25 be 90 7f 49 be dc 33 51 be b4 4c 34 be
       -0.1617397 -0.19677567 -0.20429939 -0.17607385
000040 b5 ce 51 be 27 61 44 bd c3 6f 0e bd 25 34 b4 bd
       -0.20489009 -0.047944214 -0.034774553 -0.08799008
000050 a3 fd ac bd 95 2e f2 bd ba 5d f6 bd 15 0e 74 be
       -0.08446815 -0.11825291 -0.12029596 -0.23833497
000060 1a 6c 22 be 50 71 05 be 02 ba 0c be 9c 98 3b be
       -0.1586155 -0.13031507 -0.13742831 -0.18319935
000070 53 b0 80 be 75 ea 81 bd 72 dd 60 be 35 5e e9 bc
       -0.25134525 -0.06343547 -0.21959475 -0.028487304

weight f4 [64, 32, 5, 5]
000000 8f 03 e7 bd 57 d3 96 bc 92 39 66 3d 9d 90 40 bd
       -0.112799756 -0.018411322 0.056207247 -0.047012914
000010 3c 37 25 bd d5 27 81 bd 80 11 c8 bc 58 d9 92 bb
       -0.04033588 -0.063064255 -0.024422407 -0.004481476
000020 9f 99 22 bd 81 63 bf 3c 78 15 00 bd 8a 1d c8 3c
       -0.039697286 0.023362877 -0.031270474 0.024428148
000030 ec 95 1d 3d a0 c2 60 3c 59 e6 cb 3c a4 ce 4d 3b
       0.038473055 0.013718277 0.024890112 0.0031403685
000040 df c4 74 bd dd e2 96 3c 53 fc 49 bc 04 7c 1b 3d
       -0.059758063 0.018418724 -0.012328225 0.037960067
000050 99 6d 2b 3b f4 4b fa 3c 49 97 4a bd 7c 0c 98 3c
       0.0026157855 0.030553795 -0.049460683 0.01856064
000060 5b ef 7d bc b7 85 55 bd d0 f9 8e 3d 1e 3c 59 bd
       -0.015498961 -0.052129474 0.06981242 -0.053035848
000070 f3 0e 99 3c 50 c0 ad bd d1 4d 55 bd 98 cd 03 3d
       0.018683886 -0.08483946 -0.052076165 0.03217849
000080 79 ff 05 3c 5a 32 9d 3c 60 24 89 bc 72 5b db bd
       0.008178585 0.019189049 -0.016740978 -0.10710801
000090 64 8c 08 bd bc 10 b2 3d 22 24 c5 3c 1f e6 db 3d
       -0.033337012 0.08694598 0.024065081 0.107372515
0000a0 dc a5 f5 3d 62 1d 6a 3d 15 91 f9 3d 59 31 b1 3b
       0.11994526 0.057156928 0.12185875 0.005407494
0000b0 73 6e 6c 3c 0c e0 87 3c cf cd 39 3b d0 75 81 bd
       0.01443063 0.016586326 0.0028351431 -0.06321299
0000c0 c2 7c 39 bd df 2f 1a bd 6d e9 d9 bb 0e 42 d6 3c
       -0.045284994 -0.03764331 -0.006650141 0.026154544
0000d0 62 1b f5 3b 26 2e ae 3a 34 d7 61 bd 92 32 5b 3c
       0.007480071 0.00132889 -0.055136874 0.013378756
0000e0 b1 79 2d 3d 5a 26 e6 3b 06 95 2c bc 91 d0 b0 bb
       0.042352382 0.007023615 -0.010533577 -0.005395957
0000f0 d0 52 6d 3c bc b3 82 3d 3c 40 33 3d fb 73 3e 3c
       0.014485076 0.06381938 0.04376243 0.011624332
000100 75 f1 cf bc a0 ba 5b bd ce 9e f9 3c f0 e6 0c 3d
       -0.02538369 -0.053644776 0.030471232 0.034399927
000110 71 d8 0e bd 38 19 e5 bc 58 eb 55 bd 70 f0 a2 3c
       -0.034874383 -0.027966127 -0.052226394 0.01989004
000120 d5 63 f3 3c 57 f8 80 bd 4f 09 e3 bc 94 5c 1c 39
       0.02971069 -0.06297367 -0.0277144 0.00014911807
000130 e9 29 15 3d f3 ec ef bc 58 16 97 bc f4 7c 90 bd
       0.03641692 -0.02928779 -0.018443272 -0.07055083
000140 8f fb ad bc ef 66 4b bd 88 87 a6 bd 1b 52 4b 3b
       -0.021238117 -0.049658712 -0.08131319 0.003102428
000150 14 ae cd bc 48 2b b3 bc c7 0f ad bc 83 0c 96 bc
       -0.025107421 -0.021871224 -0.021125687 -0.018316513
000160 31 99 b1 b8 27 c3 96 3c a6 ae 8a 3c 49 0c ab 3c
       -8.468552e-05 0.018403603 0.016928982 0.020879881
000170 70 39 c7 3d 09 fc ef 3b 49 82 57 bc 5a 53 23 3c
       0.09727752 0.007323746 -0.013153621 0.009968603
000180 20 cf e4 3d 6b af 31 3d c4 ad 21 3d d6 ad 08 bd
       0.111723185 0.043380182 0.039472356 -0.033368908
000190 29 5f b9 bb 07 b6 9c 3c 85 1b 84 bd 2e ca 7f bd
       -0.005657096 0.019129766 -0.064505614 -0.062448673
0001a0 e7 46 e9 bb 87 ef 81 bc ad aa 6a 3d 49 0b 95 3c
       -0.007119048 -0.015861286 0.057291675 0.018193858
0001b0 34 7c 8e 3b 8c 63 41 bd 12 e3 e5 3c 72 f8 db 3c
       0.0043483023 -0.047214076 0.028062377 0.026851866
0001c0 b6 bb 95 3c a8 27 0c 3d 54 b6 36 3a e0 c9 0c 3d
       0.018277984 0.034217507 0.0006969918 0.03437221
0001d0 e9 ab b6 bb b5 7f 5b 3b 89 9b f5 3c e2 82 06 bc
       -0.0055746925 0.0033492867 0.029981392 -0.008209916
0001e0 a3 0b 88 3d 9c b4 71 3c f7 3d 9d bd 07 4b 83 3b
       0.066428445 0.014752533 -0.076778345 0.0040067467
0001f0 6e 8d 8f 3b dd 43 3c bd 8f 9e 5e 3d 84 68 07 bd
       0.0043808734 -0.045963157 0.054350432 -0.03305866
000200 4e 95 58 bd 56 45 49 bd 39 e4 bf ba 4b 6d b9 bd
       -0.052876763 -0.04913839 -0.0014640159 -0.09054049
000210 a8 46 17 3d 33 42 04 3b ac 6e af bd 64 a1 a0 3d
       0.036932617 0.002018106 -0.08566031 0.07843283
000220 8f 4b 15 bd 7a e1 ca bd 45 cd 92 bd 4a c5 14 bd
       -0.03644901 -0.099062875 -0.07168058 -0.036320962
000230 f2 55 f7 b9 b5 10 e9 bb 94 de 7f bd af 9e 1f 3d
       -0.00047175545 -0.0071125873 -0.062468126 0.03896969
000240 63 18 92 3c 1c 8a 64 3d d9 a1 00 bc 5e 1c 9a 3d
       0.017833894 0.055795774 -0.0078510875 0.07524942
000250 ec 7d 2f bc 0e 16 82 3d 65 8f 19 bc 0a a0 10 3d
       -0.010711174 0.06351863 -0.009372567 0.035308875
000260 b9 5a c2 bb 8b a9 bd bd 26 22 56 3d 27 ce 6f 3d
       -0.005931225 -0.092608534 0.05227866 0.05854621
000270 76 18 84 bc 49 f1 17 bc 38 4d 93 bb 36 d2 96 bc
       -0.016124945 -0.009273835 -0.004495289 -0.018410783
000280 3c 2b 18 3b d4 d0 0b 3b 4f 1a 2c bd c4 27 b2 3c
       0.002321913 0.0021334188 -0.042017277 0.021747477
000290 9e 5c 11 3c d3 10 a7 bd 40 bf 37 3d c4 26 84 bc
       0.008872179 -0.08157506 0.044860125 -0.016131766
0002a0 f9 c5 06 bd 45 cc 21 3d 77 45 5a bc f8 4f f0 3b
       -0.032903645 0.039501447 -0.013322226 0.007333752
0002b0 6e d4 6c bd 54 a9 f3 bd b1 e3 3b bd fe 3e 6b bd
       -0.057819776 -0.11897531 -0.04587144 -0.05743312
0002c0 8c a2 1a bc 42 d6 e0 3b 06 76 83 bd 3a 02 a5 bd
       -0.009438168 0.006861479 -0.064189956 -0.08057065
0002d0 02 6e 73 3d 5e 21 a1 3d b4 90 31 3c c6 2c be bd
       0.059431084 0.078676924 0.010837723 -0.092858836
0002e0 1a d1 99 3c d5 a8 1a 3d 06 39 6a bc 8d c1 66 3c
       0.018776465 0.037758667 -0.014295822 0.014084232
0002f0 1b 5e 48 bd 14 bd fa bb 8d cb 5c bc 43 f0 5c bc
       -0.04891787 -0.0076519344 -0.013476265 -0.013485017
000300 2a d5 c8 3c 19 be 9e bc 11 6f 9e bb 56 3a c9 3c
       0.024515707 -0.019377755 -0.0048350175 0.02456395
000310 7b 57 99 3c 7f 5d 91 bc 25 31 92 bd 07 07 94 3d
       0.018718472 -0.017744778 -0.0713828 0.07227903
000320 1d 88 3c bc d7 df 5a bd c6 99 97 3b 6f 3d 43 bb
       -0.011507061 -0.053436127 0.0046264855 -0.0029791256
000330 56 1c 94 bb cf e5 96 bd 65 1f c7 3c 34 0d 15 3d
       -0.0045199795 -0.07368051 0.024306962 0.036389545
000340 93 50 1c 3d f5 69 7c 3c a6 c3 8a bc 2f a8 54 bd
       0.03816278 0.0154061215 -0.016938996 -0.051918205
000350 49 2e 1e 3c b3 51 25 bc 27 99 e7 3c fc a4 19 bd
       0.00965459 -0.010090279 0.02827127 -0.037510857
000360 6a 03 60 bd e6 e6 70 3d 81 be 94 bd 37 b6 fd bc
       -0.054690756 0.058813952 -0.07262898 -0.030970676
000370 cc a0 53 3a 8c bb 4c 3d 88 43 33 bd 0a 9d 41 3d
       0.0008072972 0.049983546 -0.043765575 0.047268905
000380 c7 56 0f 3d 6e 82 ff 3c 1e b7 1c 3d ff b9 5d 3d
       0.034994867 0.031190123 0.03826057 0.054132458
000390 a6 81 04 bd c2 ee 8d bd 94 4b 35 3b 64 82 83 3c
       -0.032350205 -0.06930305 0.0027663456 0.016053386
0003a0 bf ef 06 3c 36 07 2e 3c 7e 7b a7 bd 80 88 b3 bc
       0.008235871 0.010621836 -0.08177851 -0.021915674
0003b0 a3 b6 83 3d c5 d6 92 bd 2d dc 98 bc fc d7 33 bd
       0.064313196 -0.0716987 -0.018659675 -0.04390715
0003c0 ef ad 63 bb 35 89 93 3c 44 9d c3 bc 96 bc 39 3d
       -0.0034741124 0.018009761 -0.023878701 0.045345865
0003d0 fc cb f7 3b 1c f0 8e 3d a0 5f f7 bc 1c f6 65 3d
       0.0075621586 0.06979391 -0.030196965 0.05614291
0003e0 f2 6a 8b bd 39 c7 56 bd 65 ab 95 3d 39 d9 78 bc
       -0.068075076 -0.052436087 0.073080815 -0.015188509
0003f0 01 28 23 3c e9 24 8d bc 52 68 c8 bc 1e 70 31 bc
       0.009958268 -0.017229514 -0.024463806 -0.0108299535

bias f4 [64]
000000 86 ad 1d be 57 9b 57 be 0d df ee bd 12 87 23 bd
       -0.15398225 -0.21055351 -0.11663637 -0.039923735
000010 af 8c 91 be 27 51 39 3c ef 72 7e bc 8b d3 2a be
       -0.28427646 0.011310852 -0.015530332 -0.1668226
000020 d7 35 24 be ce 34 38 be 44 5d a8 bd ba e6 14 bd
       -0.16036163 -0.17988893 -0.08220914 -0.03635285
000030 cc 6d 7a bd 5f 59 b6 3c b7 8d 3d bd 97 78 8e bc
       -0.061139867 0.022259412 -0.046277728 -0.017391486
000040 3c 18 bf 3c da 00 f7 bd 7e 0c e6 bd f2 1f 21 be
       0.023326986 -0.12060709 -0.112328514 -0.15734842
000050 89 33 5e be b7 cc 35 bd 71 3b de bd 98 78 6c bd
       -0.21699347 -0.044384684 -0.10851181 -0.057732195
000060 f0 f8 ff bd 88 a5 0e be 85 4b 01 be 9c 33 80 bd
       -0.12498653 -0.13930333 -0.12626465 -0.06259844
000070 75 db 3c bd 56 fe 22 bd 3b 70 81 bd cf a0 ea bd
       -0.046107728 -0.039793335 -0.063202344 -0.11456453
000080 10 16 a0 bd 07 37 5d bd c7 6e 00 be f2 06 02 be
       -0.07816708 -0.054007556 -0.12542258 -0.12697962
000090 09 05 82 bd 83 a4 f6 bd 55 c4 4d be 87 10 6f bd
       -0.06348617 -0.12043097 -0.20094426 -0.05836537
0000a0 e8 96 00 be 25 ec 09 be 4f 21 a0 bc 40 31 f4 bd
       -0.12557566 -0.13468988 -0.019547133 -0.11923456
0000b0 2d 15 1d bd 87 e4 ab bd 9c a1 1d bd 81 20 93 bd
       -0.038350273 -0.083931975 -0.0384842 -0.07183934
0000c0 7a e6 e2 bc b5 63 e0 bd 96 23 be bd 3f d6 f9 bc
       -0.02769779 -0.109565176 -0.09284131 -0.030497668
0000d0 9c ad 1b be 91 fa 73 bd c0 40 cb bd 26 b5 48 be
       -0.15202945 -0.05956513 -0.099244595 -0.19600353
0000e0 93 d3 f1 bd 60 27 41 be df c7 8f bd fc ec 18 be
       -0.11807933 -0.18862677 -0.07020544 -0.14934152
0000f0 a8 3b 51 bd 78 3a ae bd 9c 86 24 3d 19 bd a3 bd
       -0.051082283 -0.08507246 0.040167436 -0.07995052

weight f4 [64, 1024]
000000 51 3f 82 bd 9c ad 56 3d 85 20 81 bd d4 80 25 3b
       -0.06359733 0.05241166 -0.06305031 0.002525379
000010 6d 17 65 3c fa ad 97 3c 89 cc 8e 3c b3 3f 82 3c
       0.013982636 0.018515576 0.017431514 0.015899515
000020 c1 f3 81 bd 64 5c 4e 3c 6f 6a 17 3c 8f bd 7f 3d
       -0.063453205 0.01259527 0.009241684 0.062436637
000030 93 0a 1b 3d 2f 46 5e 3c 47 52 2b 3d ae a6 b4 bc
       0.03785188 0.013566538 0.041826513 -0.022052135
000040 02 5a 3c bd 4a 3b 65 bc 02 2b d6 bb be dc 80 3c
       -0.045984276 -0.013991186 -0.0065358886 0.015730258
000050 9a 9b c7 3b 1b 76 c6 3c 52 d9 f5 3d 04 31 51 3d
       0.006091547 0.024226239 0.12004341 0.051072136
000060 49 5a a5 3c 40 d0 a0 3c 3e 38 d3 bc 15 79 13 3d
       0.020184653 0.019630551 -0.025783654 0.036004145
000070 e1 c1 1a 3d e8 6e 8f 3c 41 92 9c 3c fb 75 3e bd
       0.037782554 0.017508939 0.019112708 -0.046499234
000080 6f 1b b4 3c 57 d4 69 bd 85 00 f7 3c ed 7a 20 bb
       0.021985738 -0.05708727 0.030151615 -0.0024487332
000090 28 0a a6 bc d5 0d 7e 3b 4f 60 63 bc 73 ba c7 3c
       -0.020268515 0.0038765569 -0.013877942 0.024380898
0000a0 e5 2f cc bc a9 b1 84 bd a9 7c 4e 3c 65 af 34 bb
       -0.024925182 -0.064791985 0.0126029635 -0.0027570364
0000b0 4a 67 a5 3d 10 01 64 3c dd 8a 99 bb a2 4f 60 3d
       0.080763415 0.013916269 -0.0046857432 0.054763444
0000c0 38 b5 43 3b 56 10 05 bd de 74 eb 3b 55 5c ce 3c
       0.0029862653 -0.032486282 0.0071855625 0.025190512
0000d0 7f 6c 1d 3d 5b 5e 11 3d f4 cb b0 bc 43 2a 32 3d
       0.038433548 0.035490375 -0.021581627 0.043497335
0000e0 50 95 4e 3a 8d cc 27 3c 44 46 1e bd d1 ab a6 3a
       0.00078805257 0.01024164 -0.03864123 0.0012716
0000f0 64 b2 a5 3d 2c 77 66 3d b7 60 a2 3c 4a 55 b0 3c
       0.08090666 0.056265995 0.019821508 0.021525044
000100 57 0a 3b bc 09 a7 36 3c d5 c9 98 bc a9 dc 9d bd
       -0.011416039 0.011148223 -0.018650929 -0.07708103
000110 08 ef ba 3d c9 d4 05 bc ec 24 23 3c 87 64 63 3d
       0.09127623 -0.008168408 0.009957533 0.055515792
000120 27 cb a8 3b 2b 74 44 3d 53 9f 88 bc 5f a5 ab 3c
       0.005151171 0.04796235 -0.016677534 0.020952879
000130 74 c0 cb 3c bc 47 e6 bc f5 e6 ec 3b 39 fe 59 bd
       0.024872042 -0.028110377 0.0072296807 -0.05322096
000140 0b ac c7 bc ac 23 7b bc ab 2d 18 bb 8d dd 28 bd
       -0.024374029 -0.015328329 -0.002322058 -0.041226912
000150 9c 89 15 bd 5b 23 83 3d 06 82 fb 3c b1 b2 22 3c
       -0.036508188 0.06403228 0.030701648 0.009930299
000160 78 d0 d7 bb 80 09 7d bc ee d8 04 bd f9 4b 5b bd
       -0.0065861307 -0.0154441595 -0.032433443 -0.05353925
000170 d8 af c2 ba 06 c9 f3 3b 5a 3f 31 bc a1 05 a7 3c
       -0.0014853431 0.0074397353 -0.010818327 0.020388426
000180 74 4a c7 3a 74 43 7b 3c f3 7d e2 3b 8d 59 7a bb
       0.0015204684 0.015335906 0.006911987 -0.003820035
000190 7b 81 05 3d 6a c9 52 ba 3c 7f 46 3d 07 06 41 bc
       0.032594185 -0.00080408773 0.048461184 -0.011781222
0001a0 f1 4d a5 3b da 02 99 bd 45 36 7d 37 c1 47 4f bd
       0.0050446917 -0.07471247 1.5092611e-05 -0.05060554
0001b0 ef 1c 81 bc 6b e8 95 3b 87 cf e0 bc b3 f8 89 bc
       -0.015760867 0.0045748255 -0.027442707 -0.016842222
0001c0 75 e5 1b 3d f8 68 4b 3b 98 d1 58 bd 95 e6 69 bd
       0.038060624 0.0031037908 -0.05293426 -0.057104666
0001d0 9b 3e 5d 3c c4 1f 94 39 44 8c ba bc d7 99 15 3c
       0.013503696 0.00028252427 -0.022771962 0.009130917
0001e0 91 b5 09 bd 88 29 a9 bd 83 84 67 3a 17 07 b9 bc
       -0.03362042 -0.082598746 0.00088316965 -0.022586389
0001f0 bb 41 c5 3c de 54 7c bd 66 40 41 3d 08 01 b7 bd
       0.024079194 -0.061604373 0.047180556 -0.089357436
000200 ea c0 13 3d c3 2d aa bc 0b c8 11 bd 46 d8 24 3d
       0.03607265 -0.020773774 -0.035591166 0.040245317
000210 f3 61 82 3d cc 15 29 bd f0 9e 97 bc de d3 93 3d
       0.063663386 -0.041280553 -0.018508404 0.07218145
000220 48 a7 f2 b8 70 66 4e bd 8f ac ac bc 80 d3 df 3c
       -0.00011570618 -0.05039066 -0.021078376 0.02732253
000230 a2 f8 9f bd 16 40 84 bd b1 64 f0 3c d9 cf 5c bd
       -0.07811095 -0.06457536 0.029344888 -0.053909156
000240 eb 51 b5 bb 5c 9f a6 bc f2 e7 a3 3c a9 98 fe 3c
       -0.005533447 -0.02033966 0.020008061 0.031078653
000250 f2 64 7a bc ac 91 c6 bc fd 13 e0 3c b9 18 76 3c
       -0.015282856 -0.024239384 0.027353281 0.015020543
000260 55 f9 31 3d 17 67 38 bd ee c5 27 3c d5 83 22 bd
       0.043450672 -0.04502019 0.010240061 -0.039676506
000270 2c 31 e1 bc 7e 87 be 3c c9 af 86 bd 23 ec 1e 3b
       -0.027489267 0.023257967 -0.06576497 0.0024249635
000280 38 82 cf 3c c6 42 eb 3c d8 a8 62 3d 4e 82 0b bd
       0.025330648 0.028718363 0.055336803 -0.034059815
000290 91 c5 66 bd 7f 67 8c 3d 86 a6 f2 bc 7f c5 6d bd
       -0.056340758 0.06855678 -0.02962042 -0.058049675
0002a0 84 f5 00 3d 66 ae 1d bd 37 07 70 bd f9 7b ac 3c
       0.031484142 -0.038496397 -0.05860063 0.021055209
0002b0 39 1f ea 3c b9 6b 93 3d 92 48 c8 3b 4a 07 2d bb
       0.028579341 0.07198281 0.0061121667 -0.002640205
0002c0 95 b5 d3 bb e2 1d 01 3d bb 5c f6 3c d0 b7 80 3c
       -0.0064608552 0.03152264 0.030073514 0.015712649
0002d0 42 c2 07 3d 88 dc 10 3d 39 3d 10 3d 7f 3b 70 3d
       0.033144243 0.035366565 0.035214636 0.05865049
0002e0 0b 2a 8b b8 7c 01 c1 3c 21 39 1b bd d3 48 67 bc
       -6.6358676e-05 0.023560278 -0.03789628 -0.014116484
0002f0 1e cb 86 3d fe 67 df 3c 17 7f aa 3c d7 fc 4b bc
       0.0658171 0.027271267 0.020812554 -0.012450418
000300 33 ea 94 3b 69 62 0a bc 74 4f 19 3d 86 3f c0 3c
       0.0045445203 -0.008446314 0.037429288 0.02346779
000310 b8 2c f2 bc 55 b7 c0 bc 9c 7a 8c bd b7 8b 12 3d
       -0.02956234 -0.02352492 -0.068593234 0.035777774
000320 0d 46 3c 3d f6 b9 90 3c 9c c2 23 bd 34 20 c2 3d
       0.045965243 0.017666798 -0.039980516 0.094787985
000330 1f ff 4e bb 6c 04 4a bd 59 e1 86 bc ee 9b e5 bb
       -0.003158517 -0.049320623 -0.016464876 -0.0070071137
000340 ec a0 82 3b e9 92 7b bc 47 d4 0c 3d 50 00 71 b9
       0.0039864685 -0.01535485 0.03438213 -0.00022983667
000350 16 9f d2 3c ed 3c 83 3c ac cb 42 bd 9f 70 b5 bb
       0.025710624 0.016020263 -0.047557518 -0.005537107
000360 f9 4a 1a 3d e3 a7 59 3d cc 24 82 3d 24 d1 a2 3c
       0.037669156 0.053138625 0.06354675 0.019875117
000370 a4 f2 99 bd f2 a4 85 bd 3b 6f c7 bc 42 69 69 3c
       -0.07516983 -0.065256014 -0.024345031 0.014246287
000380 3c b4 5a bc cf 6f 4e bd 49 a4 37 bc 06 14 8f bc
       -0.013348635 -0.050399598 -0.011208602 -0.017465603
000390 94 96 5e 3d 97 75 38 3c 8c 1e 84 3b 0f 0a df bb
       0.05434282 0.011258504 0.004031962 -0.006806619
0003a0 fd ea 80 3d a1 8f 10 3c 52 b7 16 bd b3 95 39 bd
       0.062948205 0.008823306 -0.03679592 -0.04530878
0003b0 c1 c2 a2 bd 1d bc 09 3b 3f 6f 4c 3c 36 19 75 3c
       -0.079473026 0.0021016665 0.012477695 0.014959624
0003c0 04 46 93 3c 3d c1 82 3c c0 45 39 3d ee 8f 47 3c
       0.017977722 0.015961284 0.045232534 0.012180312
0003d0 13 c4 73 3d f5 0c 1c bd 11 72 63 3b 27 01 8c 3a
       0.059513163 -0.038098294 0.003470544 0.0010681496
0003e0 3c 73 3f bd 2f 13 9d bd 55 b5 96 bd 8b 91 a0 3d
       -0.046740755 -0.076696746 -0.07358805 0.0784026
0003f0 76 d9 c8 bb b8 f3 1b bd 1e d0 ae bc 17 e3 fd 3b
       -0.006129439 -0.038074225 -0.021339472 0.0077480185

bias f4 [64]
000000 7e 49 34 3d 20 a0 16 3d f9 1b 03 bd da 19 af 3c
       0.0440154 0.0367738 -0.0320091 0.021374632
000010 a8 cf 36 bd 64 92 a7 bb b0 cc 51 3c 71 67 74 bc
       -0.04463163 -0.0051138867 0.012805149 -0.0149172405
000020 1c 82 84 bd 82 b5 2f bd b0 e4 21 3d 11 f0 4d bd
       -0.06470129 -0.04289771 0.039524734 -0.050277773
000030 89 4d 86 bd b5 2f 24 bc 20 18 4d 3c 6e ce a1 3b
       -0.065577574 -0.01002114 0.012517959 0.0049379384
000040 f4 b7 2a 3d 3c 8a a6 bc 22 b6 cd 3c c1 5a e6 ba
       0.041679338 -0.020329587 0.025111262 -0.0017574654
000050 d9 f4 ae bc 46 cf 1b bd 6e 7f 0a bd 2c d0 8a 3c
       -0.021356987 -0.03803947 -0.033812933 0.016944967
000060 8e 5a c6 3a d5 6f 11 bd 4a 6a 90 3d 8e 6e 89 bd
       0.0015133189 -0.035507042 0.07051523 -0.0671054
000070 f4 06 55 bd ca 20 20 3c ff 5d 83 3c b0 78 a9 3d
       -0.052008584 0.0097734425 0.016036032 0.082749724
000080 5d 80 94 bc 71 ba dc 3c e5 35 a3 bd bd cb 28 bc
       -0.018127615 0.026944371 -0.07969264 -0.010302481
000090 ae 79 af bc 4b 9d e7 3c 28 c4 2b 3d be 5f ec 3b
       -0.021420326 0.028273245 0.041935116 0.007213562
0000a0 1e 2b f0 3c 26 69 0c 3d 96 94 35 bc 34 5b ab 3d
       0.029317435 0.034279965 -0.011082789 0.08367005
0000b0 56 b1 21 3d 0c b3 08 bd ff 67 9e bc c4 77 65 bd
       0.03947576 -0.033373877 -0.019336699 -0.05602242
0000c0 bc 3a 01 3c 9d b9 87 3c 8f 27 92 bc ec f7 7f bc
       0.0078875385 0.016568 -0.017841129 -0.015623074
0000d0 0c c0 ab 3c c0 5c b5 3c ef 41 29 bb 7d 7d 85 3d
       0.020965599 0.022138953 -0.0025826653 0.065180756
0000e0 73 d7 ac bc ce b9 46 3d a1 70 49 bc a5 19 92 bc
       -0.021098828 0.04851704 -0.012294919 -0.017834494
0000f0 f6 19 83 3c c3 c6 d0 3b cf cb 73 bd b4 9b d8 3c
       0.01600359 0.0063713505 -0.05952054 0.026441433

weight f4 [10, 64]
000000 3c e9 bc be dd 23 35 be 33 cc 70 3e 75 bd 91 3e
       -0.36896694 -0.17689462 0.23515396 0.28464857
000010 ed 34 44 be f9 6b c2 be c5 aa 96 3c c1 cc d2 bd
       -0.19160815 -0.37973002 0.018391976 -0.1029296
000020 31 a0 b3 3e e5 ef 8e 3d 6c c2 95 be b4 60 3d 3e
       0.35083154 0.0697935 -0.29249895 0.1849392
000030 56 c6 5b be 60 ee 05 be a4 db eb bd c0 97 93 be
       -0.21462378 -0.13079214 -0.115165025 -0.28826714
000040 43 41 82 3e fd 01 47 3d 07 ab 63 3d df e1 26 3e
       0.25440416 0.04858588 0.055583026 0.162971
000050 f1 1b 1d bd 24 88 b0 3d d0 d8 7f 3e ec 79 8f 3e
       -0.038356725 0.08619717 0.24985051 0.28022707
000060 f6 c1 2a be 94 08 3d be f6 10 62 3e f8 a3 a0 3e
       -0.16675553 -0.18460304 0.22076783 0.31375098
000070 69 6f 87 be f2 7e 5d 3e 21 07 8b bd 47 64 67 be
       -0.26452187 0.21630457 -0.06788469 -0.22596847
000080 4e 08 7d 3e 71 0a d4 be bc 99 ac 3e b4 2c 33 be
       0.24710199 -0.41414216 0.3371104 -0.17497522
000090 23 29 16 be 78 0e 9e 3d e9 33 84 be cd b1 2e 3e
       -0.1466413 0.077176034 -0.25820854 0.17060013
0000a0 d5 9e 81 3e e9 9f 45 3e 34 95 69 3e 15 f1 1f be
       0.25316492 0.19299282 0.22810823 -0.15619309
0000b0 3c b0 23 be 87 50 a2 3e 02 4a 79 3e 62 2f 8a 3d
       -0.15985197 0.31702062 0.24344638 0.06747319
0000c0 89 73 c1 3e 9d 41 53 bd f3 a9 27 3d c5 ea bf 3b
       0.3778346 -0.051576246 0.04093356 0.005856844
0000d0 31 ca 8a 3d ee ec 64 3e a7 d1 07 be 77 71 82 be
       0.06776846 0.22356007 -0.1326357 -0.25477192
0000e0 26 62 c6 3d dd 9c 12 be 4c 9e 09 3e 6f b0 9d 3e
       0.09686689 -0.14317651 0.13439292 0.3079867
0000f0 24 a4 c6 bd 08 9b 89 3e 82 c9 91 3e 35 f0 54 3e
       -0.09699276 0.26876092 0.2847405 0.20794757
000100 d6 37 26 3e b3 3a 0e 3e 84 99 73 3e fc 8b 52 bd
       0.16232237 0.1388958 0.2378903 -0.05140303
000110 ae 33 e2 3e 47 e9 b9 3e 54 dd 66 3e fc 4e 1e be
       0.44180053 0.3631079 0.22545367 -0.15459818
000120 fe 59 38 3e 57 f8 b1 3e 65 43 94 bd 0d c2 d7 3d
       0.1800308 0.3475978 -0.07239417 0.10535059
000130 74 be 9f 3d d3 be 76 be a8 2b dc bd a0 f8 49 3e
       0.07799998 -0.24096231 -0.10750514 0.19723749
000140 6b cc 88 3e 65 9b 83 3e 81 72 bf 3d 34 09 a0 be
       0.2671846 0.25704494 0.09348012 -0.3125702
000150 67 f8 c4 3e 55 cc 69 be f3 87 82 be 36 6e a7 3a
       0.38470766 -0.22831853 -0.25494346 0.0012773934
000160 67 13 a4 3c c1 90 8b 3e 32 5e be be 02 b4 35 3e
       0.020028783 0.27258876 -0.3718124 0.17744449
000170 86 0b d2 3e f3 b0 42 bd 2d 66 7e 3d 12 6d f0 be
       0.41024417 -0.047532033 0.06210916 -0.46958214
000180 59 60 6f be 58 01 1a 3e 61 08 b3 3d d9 d3 09 be
       -0.23376597 0.15039575 0.087418325 -0.1345972
000190 88 71 c7 3e b0 db 0e 3e 23 4f 5e 3e b2 10 6b be
       0.38953805 0.13950992 0.21709876 -0.22955588
0001a0 dc 3d a9 3d d7 91 16 3e 5a 8f 1d 3e 73 76 d8 3d
       0.08263752 0.14704071 0.15386716 0.105694674
0001b0 e3 16 3b be 7f bd 9c be b8 d3 ac bc b4 b4 a4 be
       -0.1827045 -0.30613324 -0.02109705 -0.32169116
0001c0 8d 3d 08 bd 15 cd f8 be 16 4d ed bd c3 ab 8c 3e
       -0.033261824 -0.48593965 -0.115869686 0.27474794
0001d0 a7 9f 85 3d 61 9c 98 3e 7e 7b bc 3e c5 a1 e9 be
       0.06524592 0.29806808 0.36812967 -0.45631233
0001e0 ea 34 01 bf c3 8a e0 3b dd fc c6 bd dd 3b 8f 3d
       -0.50471365 0.006852479 -0.097161986 0.0699384
0001f0 53 b0 99 be 7e bb 21 be 00 a3 02 3f 31 3b 6b be
       -0.30017337 -0.15794179 0.5102997 -0.22971798
000200 61 40 30 bd 39 5a 3f 3e c1 7b a2 be 19 77 0d be
       -0.043030147 0.18686761 -0.31735042 -0.13814963
000210 d3 84 e8 be fa fe 3d be 8d dc 38 be ec 69 39 3e
       -0.45413837 -0.18554297 -0.18052883 0.18106812
000220 64 dd 0b 3e e4 66 b6 bd eb 1f 8a 3d f5 f9 8d 3e
       0.13658673 -0.089063436 0.06744369 0.27729765
000230 ac b1 90 3e 8f 95 7a 3e f6 c7 ae 3e 6f 99 f6 bd
       0.28260553 0.24471115 0.34136933 -0.12040984
000240 48 8a 8c 3d e9 bf cf 3d 6e c3 73 be c3 29 10 3d
       0.068623126 0.10144026 -0.2380502 0.035196077
000250 7a 08 3f be 3b ca 95 be 5e 6c 38 be 95 db 00 3e
       -0.18655577 -0.29255852 -0.18010089 0.12583764
000260 47 fa a8 be 3b 34 9c be 83 1c a5 3e 0c 5e 39 3e
       -0.33003446 -0.305086 0.32248315 0.18102282
000270 10 b6 2b be d8 cf 4c be c5 01 95 3d 86 52 3d bd
       -0.1676867 -0.20001161 0.07275728 -0.04622128
000280 46 c9 65 be 7d 30 95 bd dd 4d a1 3e ec a3 30 be
       -0.22440061 -0.07284639 0.31504717 -0.17250031
000290 20 b4 87 3e a5 00 d8 bc d7 92 9b 3e 2b e9 94 be
       0.26504612 -0.026367495 0.30385467 -0.29084143
0002a0 75 9c fd bd 64 51 ac bd 74 a7 14 be 3e aa f9 bc
       -0.123833574 -0.084139615 -0.14517003 -0.030476686
0002b0 7a 24 c3 3d 8d 97 00 3e fb 77 80 3e 4a 24 60 3d
       0.09528442 0.12557812 0.25091538 0.054722108
0002c0 a2 3c 03 3e 7c a9 f2 3e f1 19 09 3d be d4 0c 3e
       0.12816098 0.4739493 0.033472005 0.1375303
0002d0 d9 e3 06 3e dc d3 bf be f1 3e 9f 3d 28 c1 93 3b
       0.13172854 -0.37466323 0.07775677 0.00450911
0002e0 e6 3e 88 3e b3 16 af 3e fc ae 8f be fe a6 20 3d
       0.26610488 0.34197006 -0.2806319 0.039221756
0002f0 1f 11 38 3e 24 0a 76 bd f7 30 23 be 17 f1 58 3e
       0.17975281 -0.060068265 -0.15936647 0.21185718
000300 07 5a ab 3d 88 17 8e be 11 b8 b3 3d 88 e4 62 bd
       0.08366781 -0.27752328 0.08775342 -0.055393726
000310 8f 34 42 be 0e 52 50 3e 92 ce 14 3e 3d ba 3f be
       -0.18965362 0.20343801 0.14531925 -0.18723388
000320 2b f3 0f be ab fb d4 3d 20 0b ba 3d 6d 6a 74 3d
       -0.14057605 0.10399564 0.09084153 0.059671808
000330 a4 bf 6f 3e 4c 5a d8 3d 7f 3e 09 3e ad d2 a5 bd
       0.23412949 0.10564098 0.13402747 -0.08096824
000340 f5 a4 24 bc f5 36 22 3d f2 c2 0f be 9f 0c 19 bd
       -0.010049094 0.039603192 -0.1403921 -0.037365552
000350 33 88 ab 3d 08 5c a2 3e 6d 50 b2 3d 96 42 27 be
       0.08375587 0.3171084 0.08706746 -0.16333994
000360 87 a2 5b be 85 b6 94 bd be d7 9f 3d 07 91 70 be
       -0.21448718 -0.07261375 0.078048214 -0.23492824
000370 aa 88 7d be 4a c7 2f 3e 45 88 75 3e 4a ed fc bd
       -0.24759164 0.17165866 0.23977764 -0.12349947
000380 fa 53 d7 3d 70 10 e8 bd 71 05 71 3c a7 f3 52 3e
       0.10514064 -0.1133126 0.01471077 0.20600758
000390 0f 5e 55 be dc 83 c2 bd 4a 2c 13 3e e7 6d bc 3d
       -0.20836662 -0.094978064 0.14372364 0.0920065
0003a0 e1 ea a9 3e bd 98 16 be 8e 14 b2 bd 52 b3 37 be
       0.3318701 -0.14706703 -0.08695327 -0.17939499
0003b0 94 0a e5 bd f5 ab 08 be bd 7b 61 be ca 8c 34 be
       -0.11183658 -0.13346846 -0.22019859 -0.17631832
0003c0 4c bd d7 be b9 f7 07 3e 48 3e 1f 3e bf 24 f5 bd
       -0.4213661 0.13278092 0.15551102 -0.119698994
0003d0 15 8e b9 bd 91 92 98 be 8d 82 04 3e df 0f 06 3e
       -0.09060303 -0.2979932 0.12940426 0.13091992
0003e0 7e c8 71 bd c9 01 76 3e 25 bd 28 3e d2 90 b0 be
       -0.059029095 0.24024118 0.16478403 -0.3448549
0003f0 a6 aa 96 be 21 1d d0 3d 97 17 a3 be 72 7c 59 bd
       -0.2942707 0.10161806 -0.31853935 -0.053097196

bias f4 [10]
000000 55 f1 5d be f5 ff f2 3c 7c c4 b5 bd 3a df 66 bc
       -0.21674092 0.029663065 -0.08875367 -0.014091307
000010 dd 46 1b 3e a3 50 1a be 0c f7 fe 3d 0b 72 75 3d
       0.15163751 -0.15069823 0.12449464 0.059923213
000020 71 c6 13 be ce 90 91 bd
       -0.14431168 -0.071076974
